colorExample_weights.npy (npy, 9752 bytes, 1 tensors)

array f8 [401, 3]
0	0x4034000000000000	20.0
1	0x4034000000000000	20.0
2	0x3ff0000000000000	1.0
3	0x405224c5e813a840	72.57457925719882
4	0x4024d33177993f47	10.412486779648715
5	0x40216d008af52216	8.712894766257744
6	0x404faa37a1457acc	63.32982269184649
7	0x3fd4c3d9c2e6e991	0.3244537738170488
8	0x40100e4b5abc4168	4.013959329357341
9	0x405043a6c5c91d5f	65.05705399170027
10	0x40305d1ce968ff8d	16.36372240842279
11	0x402668b7301b9e60	11.204522612925928
12	0x404f5dfbce7f81e1	62.734247028598254
13	0x402ffafa4048fd5c	15.990190514478563
14	0x4010b15f881cb626	4.173215986969387
15	0x4050afa1bd038bc1	66.74424672457009
16	0x401b430029ca42e0	6.815430310220762
17	0x4035cdc07a727ca5	21.80371823592272
18	0x404dc2c802d3d1a7	59.521728852679466
19	0x402d31aac4a13fb8	14.597005982097343
20	0x40147a217372134d	5.119268230283365
21	0x40515ca79018a19e	69.44772722630884
22	0x401d3abe0befc560	7.307365595349751
23	0x4024b4704c56b087	10.352419267255994
24	0x40514bfbfb229e09	69.187254699522
25	0x40173ff8a7df33ac	5.812471983907852
26	0x400d4402844a1c75	3.658207925330823
27	0x4051ed2ec3474600	71.70597917518899
28	0xc0079f83ab2d13c0	-2.952887856782098
29	0x3ffeccf7a26950d1	1.9250408500857257
30	0x4050bb0326112183	66.92206718132915
31	0x4011b547a56b3b6d	4.427031120939188
32	0xc01559eccae0bf9c	-5.337817354171332
33	0x40514a9b358ad275	69.1657232146916
34	0xbffe80235b2eaa52	-1.906283718281561
35	0xc018567d91c17da1	-6.0844633840892195
36	0x4051d2a07416f998	71.29104330295229
37	0xc00704c8a4326995	-2.877335818088975
38	0x401c567e2b068ff2	7.084465667987375
39	0x4052c2e2f22fa946	75.04510168699662
40	0x3fe153528ed989e2	0.5414212026628855
41	0x401fae0eb0c04926	7.919977914558592
42	0x405203745a44ae70	72.05397659976165
43	0x400f0cc644fc6dbf	3.8812375440154194
44	0x4010127f052c30bf	4.018062668630761
45	0x40523daed7686ab8	72.9637964744278
46	0xc0004aa2d2e8d9d1	-2.0364433743772925
47	0x401f50487b065217	7.828401491413863
48	0x4052f2717350a066	75.78817446588218
49	0xc0047e3f4bfd06f9	-2.5616441666214738
50	0xc0118feb7357d6ee	-4.390546610103895
51	0x4052d9388275be26	75.39407407282178
52	0x401ff25de88da0ec	7.98668635715897
53	0x40224bcaabff739f	9.148030638630926
54	0x40527b409b8c74da	73.92581833569002
55	0x40234ee059ed9f15	9.654055414444466
56	0x402087a2c8ae2a02	8.264913817653909
57	0x4051971ae109fc8d	70.36101556754348
58	0x40121c9b11f95e6a	4.527935295911087
59	0x40280ee5cd07dc89	12.02909699173894
60	0x4050d67c94065926	67.35135365123696
61	0x4021f976931771b7	8.987232777225342
62	0x4012b8a144aec0b9	4.68030268971068
63	0x4051a53a6cca2872	70.58169097654334
64	0x402e5fa03c17b552	15.18676936902435
65	0x402864077682b184	12.195369437650477
66	0x404cd98de38d2f6d	57.69964260476886
67	0x40244e66a53f03ad	10.153126872961218
68	0x40261ed17305c86a	11.06019172139732
69	0x4051a7213468979d	70.61140165533148
70	0x40308a828fdcadc0	16.541054717423094
71	0x401fb3be0c41eda1	7.925529662631932
72	0x404c1a7090935ff3	56.206560203514435
73	0x401cd92c7c5e657d	7.212083762418271
74	0xc0214efe56864994	-8.654284194843775
75	0x404f3fe7e463beee	62.49926428671266
76	0x403156e5e929cb1e	17.339445660308336
77	0x3ff8f13ad07d2107	1.5588939804166004
78	0x404f25f71dee8718	62.29660390993939
79	0x40239bc9c39c0db2	9.804273712920665
80	0x4028801c7ab579ca	12.250217280056763
81	0x405165bd5d61af32	69.58968290843475
82	0x3fd13c1668c9bce1	0.26929245217520587
83	0x401131e4d486ba64	4.2987244803649425
84	0x40514565c3fb27d4	69.08433627631103
85	0x4009540e56fe33f4	3.16604297602907
86	0x4023f8b1f4ae1156	9.985732694862843
87	0x40520b848512a88b	72.17996336767298
88	0xc0132660992830fa	-4.787477868154605
89	0xc0122351796fee0c	-4.534490487534196
90	0x404fbc28633d50de	63.4699825333971
91	0x4010a1fbe70a6c0a	4.1581874942885495
92	0x3ff9cd0a783481fb	1.612558812667088
93	0x40529ee8c8ee8220	74.48295806209399
94	0xc01289d01b47f331	-4.6345829260506415
95	0xc006c45246efd3be	-2.84586005610842
96	0x40521c8dcfc320e5	72.4461554914047
97	0xc01f29d24fbb03a4	-7.790841337003176
98	0xc00f832c99eda014	-3.9390499139444817
99	0x4051c406f1dbed35	71.06292387463766
100	0xc0022889af006962	-2.2697938606262804
101	0x40078bff2e511a79	2.9433578127384945
102	0x4052001d3f19c3a2	72.0017850638965
103	0xc012fb122992e60c	-4.745186471549015
104	0x400fddbfee31420c	3.9832762345106456
105	0x405275b4fd1e31bb	73.83917167614611
106	0x40056dd7fcda2866	2.678634620101593
107	0x4010f75e6a0e20b1	4.241571099388396
108	0x40534239daa2a34b	77.03478113062481
109	0x3fd9f68985895bc1	0.40567243614844634
110	0x3ff3f80ee4bf8e1c	1.2480610785941115
111	0x40537da94253ac18	77.96345575495832
112	0xc014901884b27c1f	-5.140718530076838
113	0x4022cf72e06958b1	9.405173313960718
114	0x405198ca2a41d5d5	70.3873391764567
115	0x400dbf6795551c68	3.7184592882727436
116	0xbfecf1a39e7b24a7	-0.9044969649632052
117	0x4051129f371c339e	68.29096772913041
118	0x4025febf58ffb442	10.997553616727718
119	0x4021279ea3f17d5d	8.577382205227588
120	0x40517974f43718ae	69.89776330357083
121	0x4015d020b815c4e1	5.453249813393286
122	0xbfe51d45798e4e4c	-0.6598231672418904
123	0x404fe50f8111f677	63.789535650034786
124	0x402076324a85124c	8.230852440589977
125	0x400f7b75a1b62d13	3.9352829583855367
126	0x404eeab656113479	61.83368945922934
127	0x40268259d1a4769d	11.254591513944712
128	0xc00a0b8d5b186965	-3.255640708620535
129	0x404e1b613ab2c9e9	60.2139047024719
130	0x402a11852c08f104	13.034219146815765
131	0x402cc0db353b7c10	14.376672423850351
132	0x404b3adc5f79479e	54.459850248545294
133	0xbfe3756bc1e23d6f	-0.608083609275054
134	0xc009bb960a9e9172	-3.2165947751656683
135	0x404ee8d52b54b7ea	61.81900540959016
136	0xbfff03cce199fba2	-1.9384278118666107
137	0x402c5d7bdeaf629f	14.182585677060443
138	0x404ce22a7ebdf90d	57.76692184711474
139	0x3fd82b2dcacd2a19	0.37763542942835354
140	0xc0246c544472cf76	-10.211580409064236
141	0x404c84b1a7a93fad	57.03667159809206
142	0x4029de4618877b7d	12.93412853864515
143	0xc0196f6a86ab2bfe	-6.358804802129269
144	0x404f6e103649f49d	62.85986975298986
145	0x3ff35b038a4fa842	1.209720173147176
146	0xc0272bece03786cb	-11.58579159429373
147	0x404feedf5756df6a	63.866190831583324
148	0x3fa072026874be9d	0.032119822741490035
149	0x40164354be143d3b	5.565752954469015
150	0x40518fc6d655cbf6	70.24651106241785
151	0xc021046d8631526d	-8.50864810325694
152	0xc008f951cb5f61d4	-3.1217380417331047
153	0x40508d5b5d5e8f8d	66.20870146021316
154	0x3fd64e3e093fbca8	0.3485255327531811
155	0x4010076a4f6b2bd0	4.007241478840072
156	0x405147ed1d4a995c	69.12384731564583
157	0xc023b9a61dffd72f	-9.862595498543298
158	0xc0269132761e77b9	-11.283588114947507
159	0x40530af58596cabd	76.17123546338821
160	0xc01b7af6cf464ced	-6.870082129159738
161	0xc00c088d3150aa7c	-3.504175553583364
162	0x4050f9f04dc206d5	67.90529197643203
163	0xc01de18fd5105017	-7.470275239105852
164	0xc02413c500821ec6	-10.038612380870642
165	0x4051a36dec166d9f	70.55358411970381
166	0xbfe6ce174a003f7e	-0.7126575894671843
167	0x401fb139208b7caa	7.923069485200509
168	0x4052751ecfd00f18	73.83000560110338
169	0xc015b11672aebf99	-5.422937194743917
170	0x3fcec46eeb75619b	0.2403696679782684
171	0x40518531bc7126f4	70.08116065073028
172	0xc01696b09440e7c3	-5.6471579708685935
173	0xc010a56421a9f823	-4.161514783858396
174	0x4051442fde398bfa	69.06542163486293
175	0x40182b355ce11298	6.042195750462859
176	0x4027f363baa13d97	11.975370247061432
177	0x405186c3df54ed4f	70.10570510190631
178	0x401085294d72a9ed	4.1300403691516125
179	0x40253bdb23636241	10.616906267053425
180	0x40508421a714b38b	66.06455399533858
181	0xc0103341371a1003	-4.050053463903171
182	0x40203a766beab75b	8.114184734727749
183	0x40516d9d222d9d8c	69.71271566824561
184	0x3feda1fc02bd8264	0.9260234883805194
185	0x4018bd021dd2fa00	6.184578386308658
186	0x405031691f1fc17d	64.77204111195711
187	0x402751badd277286	11.659628783288337
188	0x40282da47673dd01	12.08914537586543
189	0x404e01a2436be3a8	60.01276438491851
190	0x3ffa525347c6a05e	1.645098953604268
191	0xc01f5a7e5891a9b0	-7.838372596636347
192	0x404a827e443d94f7	53.01947834975174
193	0x4020858cfcc039f7	8.260841272797718
194	0xc0102d609bc68c57	-4.0443138446745115
195	0x40501a50e2e69567	64.41118690984659
196	0x40234a66e2a0ff2d	9.64531620230954
197	0xc0298adf7b410b2e	-12.771236278238202
198	0x4049b63eda60cbce	51.423793122543074
199	0x40136a2103e6e668	4.8536415681533995
200	0x40148ebf1ef41648	5.139400943420306
201	0x40504c318f7e6171	65.1905249342142
202	0x4016d7a6f58c8040	5.7105978362088194
203	0xc00200dc9776c7ed	-2.25042074519387
204	0x404fd05c93b6528b	63.62782522585356
205	0x401641ab48e6e51f	5.564129962055886
206	0xc0149e3dfc54a725	-5.154533331553272
207	0x4050392114dc1a3f	64.89264413351428
208	0x3ff4af5e9b4e5e46	1.2928148333211467
209	0x3fe34989ba66d040	0.6027268067032381
210	0x404fa44b80707819	63.28355412952096
211	0xc00a14c704f02574	-3.2601452241694293
212	0x4006775f47de54ef	2.8082872023320458
213	0x404fca28b36a5fc9	63.57936709112216
214	0xc01feee8b912918a	-7.9833096425612755
215	0x4003994bc4ed3911	2.4498515496153535
216	0x4051a78baf32f256	70.61790065741783
217	0xc012baff6f8c8626	-4.682615035011201
218	0xc0200a497207690f	-8.020091594128216
219	0x40517f85ed309f87	69.99254922626834
220	0xc029a863a2c6fb7f	-12.828885161199421
221	0xc01baa87c18e21da	-6.916533493328155
222	0x40511dccedd04322	68.46563287103757
223	0xc000ffe36f6d5133	-2.1249455170856435
224	0xbfd247e0c40c10ab	-0.285637084438586
225	0x405191ad8a25d863	70.27621701904131
226	0xc0165a94f790d739	-5.5884588892129665
227	0x400e8b8529c8c210	3.818125082434797
228	0x40509512a17cd107	66.32926213444817
229	0x3ff4d9f2af5b9644	1.3032099580681384
230	0xc01367709efbe760	-4.85101555263995
231	0x405298cd8bcefd96	74.38754553998874
232	0xc003873fca660edd	-2.4410396397014282
233	0x4013f2d123fa6d72	4.987125932845958
234	0x404f9c4d93c95002	63.22111747102464
235	0x400b460abaf30ca2	3.409200153867986
236	0x400d849a7d5ce880	3.6897477907160123
237	0x404fae4667dd162b	63.36152361197704
238	0xc00c72939f4b55d1	-3.555945629583882
239	0x40222dde4094ce5c	9.08958627525788
240	0x4050c9a6b00e608f	67.15079881099722
241	0x401c06adcc2b56f2	7.006522359986535
242	0xc015e2abebc3f779	-5.471358951412065
243	0x404c087add92d964	56.06624955816622
244	0x4022c17b7a8c0cf2	9.377895192714707
245	0xc0050c5819a7588b	-2.6310274128146083
246	0x404ed1131fd7e59c	61.633396130007185
247	0x3ff580e41c1e922e	1.3439675424971358
248	0xc029dbeb48d137eb	-12.929529452838286
249	0x40498112e9434305	51.00838962349193
250	0x4027535a27cef045	11.662797206889204
251	0xc0304f773143ed58	-16.310412482341548
252	0x404c27b44be6382e	56.3101897119635
253	0xbfba078977ec37b5	-0.10167750528145698
254	0xc02973f8db43e487	-12.726507999456102
255	0x404cdc9918d6edef	57.72342215056039
